…
{"obj": {"type": "AssignString", "path": ["sys", "hostname"], "value": "S20212077"}, "version": 3, "at": 1742396978.0770347}
{"obj": {"type": "AssignString", "path": ["monitoring", "a86a4a2e", "pid"], "value": "4228"}, "version": 4, "at": 1742396978.077098}
{"obj": {"type": "AssignString", "path": ["monitoring", "a86a4a2e", "tid"], "value": "4392"}, "version": 5, "at": 1742396978.0771565}
{"obj": {"type": "AssignBool", "path": ["sys", "failed"], "value": false}, "version": 6, "at": 1742396978.0772035}
{"obj": {"type": "AssignString", "path": ["training", "model", "summary"], "value": "UNet(\n  (encoder): Encoder(\n    (enc_blocks): ModuleList(\n      (0): Block(\n        (conv1): Conv2d(1, 64, kernel_size=(3, 3), stride=(1, 1), padding=(1, 1))\n        (relu): ReLU()\n        (conv2): Conv2d(64, 64, kernel_size=(3, 3), stride=(1, 1), padding=(1, 1))\n      )\n      (1): Block(\n        (conv1): Conv2d(64, 128, kernel_size=(3, 3), stride=(1, 1), padding=(1, 1))\n        (relu): ReLU()\n        (conv2): Conv2d(128, 128, kernel_size=(3, 3), stride=(1, 1), padding=(1, 1))\n      )\n      (2): Block(\n        (conv1): Conv2d(128, 256, kernel_size=(3, 3), stride=(1, 1), padding=(1, 1))\n        (relu): ReLU()\n        (conv2): Conv2d(256, 256, kernel_size=(3, 3), stride=(1, 1), padding=(1, 1))\n      )\n    )\n    (pool): MaxPool2d(kernel_size=2, stride=2, padding=0, dilation=1, ceil_mode=False)\n  )\n  (decoder): Decoder(\n    (upconvs): ModuleList(\n      (0): ConvTranspose2d(256, 256, kernel_size=(2, 2), stride=(2, 2))\n      (1): ConvTranspose2d(128, 128, kernel_size=(2, 2), stride=(2, 2))\n      (2): ConvTranspose2d(64, 64, kernel_size=(2, 2), stride=(2, 2))\n    )\n    (dec_blocks): ModuleList(\n      (0): Block(\n        (conv1): Conv2d(512, 128, kernel_size=(3, 3), stride=(1, 1), padding=(1, 1))\n        (relu): ReLU()\n        (conv2): Conv2d(128, 128, kernel_size=(3, 3), stride=(1, 1), padding=(1, 1))\n      )\n      (1): Block(\n        (conv1): Conv2d(256, 64, kernel_size=(3, 3), stride=(1, 1), padding=(1, 1))\n        (relu): ReLU()\n        (conv2): Conv2d(64, 64, kernel_size=(3, 3), stride=(1, 1), padding=(1, 1))\n      )\n      (2): Block(\n        (conv1): Conv2d(128, 32, kernel_size=(3, 3), stride=(1, 1), padding=(1, 1))\n        (relu): ReLU()\n        (conv2): Conv2d(32, 32, kernel_size=(3, 3), stride=(1, 1), padding=(1, 1))\n      )\n    )\n  )\n  (head): Sequential(\n    (0): Conv2d(32, 1, kernel_size=(1, 1), stride=(1, 1))\n  )\n)"}, "version": 7, "at": 1742396978.147878}
{"obj": {"type": "AssignString", "path": ["source_code", "integrations", "neptune-pytorch"], "value": "2.0.0"}, "version": 8, "at": 1742396978.1493883}
{"obj": {"type": "AssignFloat", "path": ["training", "hyperparams", "lr"], "value": 0.0001}, "version": 9, "at": 1742396978.1497936}
{"obj": {"type": "AssignInt", "path": ["training", "hyperparams", "bs"], "value": 32}, "version": 10, "at": 1742396978.1498766}
…
